best_bert_model.pth (torch, 888359 bytes, 55 tensors)

embedding.weight f4 [64, 6]
0	0x3eab9b15	0.33516756
1	0x3d99748c	0.07492933
2	0xbe71ea7a	-0.23624602
3	0x3e8e9a90	0.27852297
4	0xbd6c9c0e	-0.057766013
5	0x3eb98ed9	0.36241797
6	0xbe8a6ae1	-0.27034667
7	0xbe2d8334	-0.16944581
8	0xbe84e283	-0.25954065
9	0x3eacda59	0.33760336
10	0x3ebd216f	0.3693957
11	0x3e6b5929	0.2298323
12	0x3d1217b0	0.03566712
13	0x3eb9e5ca	0.36308128
14	0x3ebf2b6a	0.3733781
15	0xbe1c21ab	-0.15247218
16	0x3e7bc6aa	0.24587503
17	0xbe1202fa	-0.14258948
18	0xbea52c44	-0.32260334
19	0x3e6c52c6	0.2307845
20	0x3eabc377	0.33547565
21	0xbd19ee9e	-0.03758108
22	0x3e17b121	0.14813663
23	0xbe8b30b0	-0.27185583
24	0xbcb206c8	-0.02173175
25	0xbe4fca38	-0.20291984
26	0x3e7fcc63	0.24980311
27	0xbe26d906	-0.16293725
28	0xbdbc8f75	-0.0920705
29	0xbdfc8e67	-0.123318486
30	0x3dcbb6d5	0.09946982
31	0xbe768b5a	-0.24076596
32	0x3d901f50	0.070372224
33	0xbe9f9be7	-0.31173632
34	0xbe2373f2	-0.15962198
35	0xbe557317	-0.20844685
36	0xbe067833	-0.1313179
37	0x3e1b72c9	0.15180506
38	0xbe1ef780	-0.15524101
39	0x3ec58b7e	0.38582987
40	0x3e0d2c70	0.13786483
41	0x3e0c6a43	0.1371241
42	0x3d008bc1	0.03138328
43	0xbdfb09b1	-0.12257708
44	0xbd1f74da	-0.038929798
45	0x3cb25ab2	0.021771763
46	0x3d68ae97	0.056807127
47	0x3d7387c8	0.059455663
48	0xbe350c81	-0.17680551
49	0x3ec4b8ee	0.3842234
50	0xbe15bcca	-0.14622799
51	0x3eb85052	0.3599878
52	0xbe4c7080	-0.1996479
53	0xbe154e30	-0.14580607
54	0xbe53b6e7	-0.2067524
55	0x3db6d275	0.0892686
56	0x3dd72f48	0.10507065
57	0xbead79f0	-0.33882093
58	0xbc8ddf4d	-0.017318392
59	0x3eabb27c	0.3353461
60	0xbecd5f71	-0.4011188
61	0xbe5826b1	-0.2110851
62	0x3d4b7ca2	0.049679406
63	0x3e9de1f0	0.3083644
64	0x3e9512e1	0.29115966
65	0x3e7e12bf	0.24811839
66	0x3e00b23a	0.12567988
67	0xbeb1af61	-0.34704116
68	0x3dc50cad	0.09621558
69	0x3ec15e51	0.3776727
70	0x3d2e0823	0.04248823
71	0xbe8788a3	-0.26471433
72	0x3eca700e	0.39538616
73	0xbbdea82d	-0.0067949505
74	0x3db1508c	0.08657941
75	0x3e4c84e0	0.19972563
76	0xbe843bc5	-0.2582685
77	0x3eb02a18	0.34407115
78	0x3dcd6987	0.10029893
79	0x3e9498c5	0.29022804
80	0xbec686b9	-0.3877466
81	0x3d5dc690	0.054144442
82	0xbe71ac2b	-0.23600833
83	0xbdac54e2	-0.084146276
84	0xbe1f42f8	-0.1555289
85	0x3e93496a	0.28766948
86	0x3e0ab762	0.13546517
87	0x3da373c4	0.07981065
88	0x3e8e809c	0.27832496
89	0xbdbf1c4c	-0.09331569
90	0x3c089975	0.008337368
91	0x3ece48de	0.40289968
92	0xbdef2418	-0.11676806
93	0xbd337143	-0.043809187
94	0x3e8e7dcc	0.2783035
95	0x3eb3ed0a	0.35141784
96	0x3d0e16eb	0.034689825
97	0xbebaef01	-0.3651047
98	0x3db2d4fa	0.08732028
99	0xbea40828	-0.32037473
100	0x3c9f18b0	0.019420952
101	0x3ece6491	0.403111
102	0xbdaf8df3	-0.085719965
103	0x3e9fca46	0.3120901
104	0x3eb6537d	0.35610572
105	0x3ecc4717	0.39897987
106	0xbdcb7c62	-0.099358335
107	0xbd0c9423	-0.03432096
108	0xbe8c0bb2	-0.27352673
109	0xbe962aa7	-0.29329416
110	0x3e11c129	0.14233841
111	0xbcbcce2c	-0.02304753
112	0xbdbe9729	-0.09306175
113	0xbeabbd7f	-0.33543012
114	0x3ec2338e	0.37929958
115	0x3ec1ba73	0.37837562
116	0xbde7d52a	-0.11319955
117	0xbe8bbe52	-0.2729364
118	0xbd91e267	-0.07123261
119	0x3ec9ffb8	0.3945291
120	0xbe59f65c	-0.21285385
121	0xbd182508	-0.03714469
122	0x3d869817	0.065719776
123	0x3db66dc4	0.08907655
124	0xbdd21bbc	-0.10259196
125	0xbca297bc	-0.019847743
126	0x3ec7ba3e	0.3900928
127	0xbe943c4d	-0.28952256
128	0x3e8ae5d9	0.27128485
129	0x3eaab042	0.333376
130	0x3d2e546e	0.042560987
131	0x3e93f276	0.2889592
132	0xbec9532f	-0.39321277
133	0x3ec45756	0.38347882
134	0x3e86a3bf	0.26296803
135	0xbe55dd12	-0.20885113
136	0xbe9998ec	-0.29999483
137	0xbb0e753d	-0.002173736
138	0x3e0b3373	0.13593845
139	0xbdbc7eee	-0.092038974
140	0xbde6e371	-0.1127385
141	0xbdb7afcf	-0.0896908
142	0x3e1b6559	0.1517538
143	0x3e5b94c4	0.21443468
144	0xbd81caa2	-0.06337477
145	0xbec6f454	-0.38858283
146	0x3e337d38	0.17528236
147	0xbea5e145	-0.3239843
148	0x3e9ffa52	0.31245667
149	0xbe516fd3	-0.20452814
150	0xbbb092e8	-0.0053886063
151	0x3e8f7fe0	0.28027248
152	0x3e9a266b	0.30107436
153	0x3d9bae54	0.0760161
154	0x3e02d391	0.12776019
155	0x3ea6ce6a	0.32579356
156	0x3e2661ef	0.16248296
157	0xbe9706bf	-0.29497334
158	0xbe86a182	-0.26295096
159	0xbe2f7545	-0.17134579
160	0xbea50d16	-0.32236546
161	0x3e83af7a	0.25719815
162	0xbd517253	-0.05113442
163	0x3e989269	0.29799202
164	0xbd47bc37	-0.04876348
165	0xbeaf836f	-0.34279963
166	0xbeaf04d5	-0.34183374
167	0xbd8f27b5	-0.069899954
168	0x3e7923ef	0.24330114
169	0xbea24373	-0.31692085
170	0xbd832e5a	-0.06405325
171	0xbe24c3e3	-0.1609035
172	0xbe24ccfe	-0.16093823
173	0xbe66b521	-0.22530033
174	0x3e754e99	0.23955764
175	0xbe2fb22b	-0.1715781
176	0x3e0df0bd	0.13861366
177	0xbcbe0b15	-0.023198644
178	0x3e8775a7	0.2645695
179	0x3dbd3555	0.09238688
180	0x3e454d87	0.19267856
181	0x3ec8bf8a	0.39208633
182	0xbddcd6db	-0.10783168
183	0xbd95207d	-0.07281587
184	0x3cefabf2	0.029256795
185	0x3dcc09fa	0.099628404
186	0x3ce019dd	0.027356083
187	0x3c1a5d52	0.009421663
188	0xbdd4e046	-0.10394339
189	0x3e2d2909	0.16910185
190	0xbecdaa6b	-0.4016908
191	0x3e07644a	0.13221851
192	0x3e8702f1	0.26369432
193	0x3c4d837f	0.012543558
194	0x3eaf2ce6	0.34213942
195	0x3d130602	0.0358944
196	0x3db58f1f	0.08865189
197	0x3eaa05f2	0.3320766
198	0xbe120dd2	-0.14263085
199	0xbe81c4c6	-0.2534544
200	0xbd3053d9	-0.043048713
201	0x3e84caec	0.25936067
202	0x3e01f7b3	0.12692146
203	0xbe5703f1	-0.20997597
204	0xbde51e05	-0.111873664
205	0x3dd7bf2b	0.10534509
206	0xbe458ca9	-0.19291939
207	0xbe3575be	-0.17720696
208	0x3e595425	0.21223505
209	0xba0d2be8	-0.00053852657
210	0x3eb79501	0.35855868
211	0xbea2a9bd	-0.31770125
212	0x3c8a6882	0.016895536
213	0xbec99f67	-0.39379427
214	0xbea7f12c	-0.32801187
215	0x3d33c34b	0.043887418
216	0xbe8c238c	-0.2737087
217	0x3e3c04c7	0.18361197
218	0xbcf0dfbd	-0.029403562
219	0xbbd3bee8	-0.006461967
220	0x3dd111d0	0.102084756
221	0xbe95540a	-0.2916568
222	0x3e17092e	0.14749596
223	0x3e1357f8	0.14389026
224	0x3eb941c5	0.3618299
225	0xbe62cf8a	-0.22149482
226	0xbdee0497	-0.11621969
227	0x3e2a1cd2	0.16612557
228	0x3e5e35b3	0.21700172
229	0x3e528f9c	0.20562595
230	0x3e51354c	0.20430487
231	0xbeb142cc	-0.34621274
232	0xbd7edafa	-0.06222055
233	0xbed306f9	-0.41216257
234	0xbe182370	-0.14857268
235	0xbecc4eb9	-0.3990381
236	0x3ed28686	0.41118258
237	0xbd4de673	-0.0502686
238	0x3e697320	0.22797823
239	0xbded6289	-0.1159106
240	0xbea93ccc	-0.33054197
241	0xbe04573e	-0.12923905
242	0xbeaa8238	-0.33302474
243	0xbe5ed7f5	-0.21762069
244	0x3d903252	0.07040848
245	0xbe989092	-0.29797798
246	0xbeade7b9	-0.33965853
247	0x3e72c122	0.23706487
248	0x3d12a7ac	0.035804436
249	0x3c575b17	0.013144276
250	0xbe87a56c	-0.26493394
251	0xbdd912c6	-0.10599284
252	0xbc738a24	-0.014864478
253	0xbeae37ac	-0.3402685
254	0xbea4d612	-0.32194573
255	0x3e49ba71	0.19700028

embedding.bias f4 [64]
0	0xbe91b62d	-0.28459302
1	0x3d9643b7	0.07337134
2	0xbd7640e7	-0.06012049
3	0xbec68a5e	-0.3877744
4	0xbe9dffa1	-0.30859092
5	0x3e2b7ef3	0.16747646
6	0xbe2727e9	-0.16323818
7	0x3e652212	0.22376278
8	0x3e78bd34	0.24290925
9	0x3e5aba59	0.21360148
10	0xbe8d32e3	-0.27577886
11	0xbe730180	-0.23731041
12	0xbe550364	-0.20802075
13	0x3e9b2b1c	0.30306327
14	0x3db2f909	0.08738906
15	0xbe3d5690	-0.18490052
16	0xbeb0f386	-0.34560794
17	0x3e8e7f05	0.27831283
18	0xbe836a53	-0.25667056
19	0xbe95a5d6	-0.29228085
20	0x3cacc9ad	0.02109226
21	0xbec085d6	-0.3760211
22	0x3ce1de59	0.027571844
23	0x3e0159ff	0.12631987
24	0xbec058f1	-0.37567857
25	0x3d8a8be7	0.067649655
26	0xbe127add	-0.14304681
27	0x3eac8c31	0.33700708
28	0x3e186e6f	0.14885877
29	0xbe8e76c5	-0.2782499
30	0xbdd9dae8	-0.10637456
31	0xbcfa4602	-0.03055096
32	0xbd87b09c	-0.066254824
33	0x3e7e34b7	0.24824797
34	0x3d947296	0.07248418
35	0xbe40aecd	-0.18816681
36	0xbe34c935	-0.1765488
37	0xbe83b670	-0.25725126
38	0x3dfa89b3	0.12233295
39	0xbecd3f23	-0.40087232
40	0xbe94d9f6	-0.2907254
41	0x3da5c055	0.08093325
42	0xbce86d9e	-0.028372582
43	0x3e1d6cb9	0.15373506
44	0xbe3efb31	-0.1865051
45	0x3ebeef34	0.37291873
46	0x3d0a97df	0.03383624
47	0x3e0868c6	0.13321218
48	0xbdf1a6ee	-0.117994174
49	0xbd7a67e4	-0.061134234
50	0xbe0180b1	-0.12646748
51	0x3ead41d4	0.33839285
52	0x3e0be8d8	0.13663042
53	0xbe5bd549	-0.2146808
54	0x3db88714	0.09010139
55	0x3d31fd1b	0.04345427
56	0x3da9cc93	0.082909726
57	0x3e8a89cd	0.2705826
58	0xbe87f4c9	-0.26553944
59	0x3e5cfe5f	0.2158141
60	0xbdb414de	-0.087930426
61	0xbead1337	-0.33803722
62	0xbb499f96	-0.0030765287
63	0xbe3b10bf	-0.18268107

layers.0.self_attn.in_proj_weight f4 [192, 64]
0	0x3e095209	0.134102
1	0x3d6d33b6	0.057910644
2	0xbe1014fb	-0.14070503
3	0x3d27b66d	0.04094546
4	0x3d9e5f9a	0.07733078
5	0x3e0fc557	0.14040123
6	0x3d242172	0.04007096
7	0xbd43b1ba	-0.047776915
8	0xbc85754c	-0.016291283
9	0xbbfc0653	-0.0076911836
10	0x3dc5364c	0.09629497
11	0x3d0c79d1	0.03429586
12	0xbdd85a7f	-0.10564136
13	0xbd21db39	-0.039515708
14	0x3acddc6d	0.0015705951
15	0xbc21cf6e	-0.009876115
16	0x3d11f254	0.035631493
17	0x3a61a39f	0.000860745
18	0xbc9c7e32	-0.019103143
19	0xbd67bb95	-0.056575377
20	0x3e04ef7f	0.12981986
21	0x3d8fd7db	0.07023593
22	0x3ddfe485	0.109322585
23	0x3d2d1d7d	0.04226445
24	0xbb69c77b	-0.0035671878
25	0xbc7cca85	-0.015429144
26	0xbdb3577d	-0.087569214
27	0x3e15d157	0.14630638
28	0xbdb08091	-0.08618272
29	0x3df39d54	0.11895242
30	0x3d0b2f50	0.033980668
31	0x3e140619	0.14455451
32	0xbdb27d59	-0.087153144
33	0xbc7df91d	-0.015501288
34	0x3d4ec700	0.05048275
35	0xbde24ade	-0.11049436
36	0xbddabf46	-0.10681014
37	0xbddf1a3e	-0.10893677
38	0x3c2756fd	0.010213611
39	0x3dee85e2	0.1164663
40	0xba535ae9	-0.0008062558
41	0x3e066ae3	0.13126712
42	0xbe168f29	-0.14703049
43	0xbc499e1f	-0.012305765
44	0x3cae3720	0.02126652
45	0x3e1ee35e	0.15516421
46	0x3c29d409	0.0103654945
47	0x3d58309a	0.052780725
48	0x3c1a2646	0.009408539
49	0x3d48dd78	0.049039334
50	0xbdbf6009	-0.09344489
51	0xbc24d39c	-0.010060217
52	0xbdf60826	-0.12013273
53	0xbe08b679	-0.13350858
54	0xbe00b149	-0.12567629
55	0xbddea658	-0.10871571
56	0xbddbaeff	-0.10726737
57	0x3c9e948a	0.019357938
58	0xbdd02214	-0.1016275
59	0x3d519373	0.05116601
60	0x3dd61dea	0.104549244
61	0x3d4da7ed	0.050208975
62	0xbdd47d45	-0.10375456
63	0xbdd05ecf	-0.10174333
64	0xbdef180c	-0.116745085
65	0xbdbd88ac	-0.09254584
66	0xbde96a7f	-0.11397266
67	0xbd66b8dd	-0.056328643
68	0x3d1a09a8	0.037606865
69	0xbdcb1d07	-0.09917646
70	0xbc6b09e0	-0.014345616
71	0xbd63e8ed	-0.055642057
72	0x3e09f0c7	0.13470756
73	0x3e13ab88	0.14420903
74	0x3df95fe3	0.12176492
75	0x3de85909	0.11345107
76	0x3d3f6215	0.046724398
77	0x3e180ea8	0.14849341
78	0x3dcaa04c	0.098938555
79	0xbdb164d4	-0.086618096
80	0xbde73d5a	-0.11290999
81	0xbdfe392d	-0.12413249
82	0x3c890f48	0.01673092
83	0xbdf98b6c	-0.12184796
84	0x3a90d0cc	0.0011048554
85	0xbe1484c6	-0.14503774
86	0xbe126c4c	-0.14299124
87	0x3da1d0eb	0.07901176
88	0xbd91e655	-0.071240105
89	0xbcecc2ae	-0.028901424
90	0x3cdaf69a	0.026728917
91	0xbde7e734	-0.11323395
92	0xbde344fc	-0.11097142
93	0xbdb09178	-0.08621496
94	0x3d57d1fe	0.0526905
95	0x3dfc63e2	0.12323739
96	0x3e1d3db6	0.15355572
97	0x3e0dd127	0.13849317
98	0x3d4266f1	0.047461454
99	0xbe0a2f0c	-0.1349451
100	0xbde7b7d2	-0.11314358
101	0xbdf97956	-0.12181346
102	0x3e0faa8d	0.14029904
103	0xbde5c627	-0.11219435
104	0x3dc4259c	0.09577486
105	0x3d892810	0.066970944
106	0x3e03db5e	0.1287665
107	0xbcdd468c	-0.027011178
108	0x3baa8321	0.00520362
109	0xbdb20815	-0.08692948
110	0xbdf801c6	-0.12109713
111	0x3d509ec1	0.05093265
112	0xbe06a987	-0.13150607
113	0x3bde1f0e	0.0067786044
114	0xbd22998d	-0.03969722
115	0xbd47509b	-0.048660856
116	0x3e02b04c	0.12762564
117	0x3da4f9ad	0.080554344
118	0xbb466b29	-0.0030276275
119	0xbd38e341	-0.0451386
120	0x3a55668b	0.0008140585
121	0xbad3deda	-0.0016164437
122	0xbd221f62	-0.03958071
123	0xbe0d3b54	-0.13792163
124	0xbd6c64d4	-0.057713345
125	0xbc97688d	-0.01848247
126	0x3dbfaf69	0.09359629
127	0xbe07e5ab	-0.13271205
128	0xbdb0fd19	-0.086420245
129	0x3e1ece36	0.1550835
130	0x3e1311f8	0.14362323
131	0x3db68d54	0.08913675
132	0xbd232c17	-0.03983697
133	0xbe09ffc8	-0.13476479
134	0x3de1d6f5	0.11027328
135	0xbe141a70	-0.1446321
136	0x3e0a3a49	0.13498797
137	0x3cab0598	0.02087669
138	0x3df8002b	0.12109407
139	0x3dd69769	0.10478098
140	0x3e164811	0.14675929
141	0x3d1bed7e	0.038068287
142	0x3d6f0226	0.05835166
143	0xbddbbb36	-0.10729067
144	0x3a6e7580	0.00090964884
145	0x3d183832	0.037162967
146	0xbdcb3faf	-0.09924256
147	0x3d9ab1e7	0.075534634
148	0x3cd3116a	0.02576514
149	0xbd92ba02	-0.071643844
150	0xbd8fb008	-0.07015997
151	0xbc31b9b2	-0.010847496
152	0xbe014f6c	-0.12627953
153	0x3d6902c2	0.056887396
154	0x3c50d615	0.012746354
155	0x3e137463	0.14399867
156	0xbdafacf3	-0.08577909
157	0xbdfe19eb	-0.12407287
158	0x3e16a5d4	0.14711696
159	0x3b6689fd	0.0035177462
160	0x3e086147	0.13318358
161	0x3d06718c	0.03282313
162	0x3e1a4f17	0.15069233
163	0x3db4e7c9	0.08833272
164	0xbe07be8c	-0.13256282
165	0x3e072f9e	0.13201758
166	0xbe03fb73	-0.12888889
167	0xbda4fa67	-0.08055573
168	0xbdbf7eea	-0.09350379
169	0xbdcb312b	-0.099214874
170	0x3db0114b	0.08597048
171	0xbd403836	-0.046928607
172	0x3d7f3319	0.06230459
173	0x3dec54c5	0.11539606
174	0x3c3855e7	0.011250949
175	0xbd0cb741	-0.034354452
176	0x3c7c5160	0.015400261
177	0x3dfec222	0.12439372
178	0x3db0947f	0.086220734
179	0x3de1a337	0.11017459
180	0x3d4176ed	0.047232557
181	0x3dac46bb	0.08411928
182	0x3d4955a7	0.04915395
183	0x3e1a1d61	0.1505027
184	0xbe0e3784	-0.13888365
185	0x3d694783	0.056952965
186	0xbde4ad77	-0.11165898
187	0xbdd6fffb	-0.10498043
188	0xbe0dad2b	-0.1383559
189	0xbd01fbf6	-0.03173443
190	0xbe085edb	-0.13317434
191	0x3d8a97eb	0.06767257
192	0x3d142577	0.03616854
193	0x3dc518fc	0.09623906
194	0xbb70a7e8	-0.0036721174
195	0x3e0766b3	0.1322277
196	0xbd29b923	-0.041436326
197	0xbe027baa	-0.12742487
198	0x3dc142e8	0.094365895
199	0xbe003e6b	-0.1252381
200	0x3d998ddc	0.07497761
201	0xbdf64e07	-0.12026601
202	0xbda45b8b	-0.08025273
203	0x3ceadf11	0.02867082
204	0x3c8c7f5a	0.01715057
205	0x3d9d8bb8	0.07692665
206	0xbe1b3489	-0.1515676
207	0xbdcc093d	-0.099626996
208	0x3dc1c5dd	0.094615676
209	0xbd8f5e2d	-0.070003845
210	0x3dc63529	0.09678108
211	0xbd880bc3	-0.06642868
212	0xbe15388b	-0.1457235
213	0xbd7c7f9f	-0.061645146
214	0xbdfb6078	-0.12274259
215	0x3dde8ee2	0.108670965
216	0xbd90859c	-0.07056734
217	0x3ccce808	0.025012985
218	0x3e072f46	0.13201627
219	0xbe15400f	-0.14575218
220	0x3d8dc374	0.06922045
221	0x3d939c09	0.07207496
222	0x3e170c9e	0.14750907
223	0x3daab06c	0.08334431
224	0x3c800d47	0.015631331
225	0x3dd4e6c0	0.103955746
226	0xbdc26c50	-0.09493315
227	0xbd5cb216	-0.053880773
228	0xbdd36508	-0.103220046
229	0xbd0ee3f4	-0.03488536
230	0xbd8f2cc6	-0.06990962
231	0xbd6c302a	-0.05766312
232	0x3e0b6a44	0.13614756
233	0xbe182540	-0.1485796
234	0xbd905259	-0.070469566
235	0x3d6c2b80	0.057658672
236	0xbdfd583c	-0.12370345
237	0xbde5dbf5	-0.11223594
238	0x3d6ae17f	0.057343956
239	0xbdac48b5	-0.08412305
240	0x3b51dbba	0.0032021836
241	0x3d977ec6	0.07397227
242	0xbe191767	-0.14950334
243	0xbc066c50	-0.008204535
244	0x3e1b1944	0.15146357
245	0x3bfe5c47	0.007762465
246	0x3de41936	0.11137621
247	0xbddff5b6	-0.109355375
248	0x3dad0b9e	0.084494814
249	0x3cc92c6f	0.02455732
250	0x3dd7f5be	0.105449185
251	0x3e06ed8f	0.13176559
252	0xbd2dbaf9	-0.04241464
253	0xbd9ee632	-0.0775875
254	0x3e0b271f	0.13589142
255	0x3d11d7f5	0.035606343

layers.0.self_attn.in_proj_bias f4 [192]
0	0x3ba01612	0.0048854435
1	0x3b95d78c	0.0045728143
2	0xbb25ae1f	-0.0025280786
3	0xbb17acef	-0.0023143848
4	0x3b165f36	0.0022944934
5	0xbad59ce9	-0.0016297373
6	0xbb7bebe0	-0.0038440153
7	0xbb6d45f9	-0.0036205037
8	0x3b8b47b9	0.0042504934
9	0xbb836f7c	-0.0040110927
10	0xbb0b40c3	-0.0021248318
11	0xbb212d3d	-0.0024593615
12	0xbb23fa5f	-0.002502106
13	0x3b95f605	0.004576447
14	0x3b1ee40d	0.0024244816
15	0xba2dd427	-0.00066310394
16	0x37c0db7f	2.2990394e-05
17	0xba253214	-0.0006301713
18	0x3b131a5e	0.0022446136
19	0xba7f1d7d	-0.0009731872
20	0xb90ff1dc	-0.00013727642
21	0x3a37f762	0.0007017759
22	0xb7153fed	-8.895976e-06
23	0x397a833f	0.00023890751
24	0x3b37fded	0.0028074936
25	0x3a17fd66	0.0005797952
26	0xb988533c	-0.00026001956
27	0xbb890990	-0.004182048
28	0x3b1da0e8	0.0024052206
29	0x3b84ef4b	0.0040568463
30	0x3a594c0f	0.00082892267
31	0x39e48eab	0.00043593845
32	0x3b8d8bf3	0.0043196618
33	0xbb1f5993	-0.0024314865
34	0x38245808	3.9182632e-05
35	0xb653aa84	-3.1540703e-06
36	0x3b161ceb	0.002290542
37	0xb94441b2	-0.0001871649
38	0xbb3d3777	-0.002887217
39	0x3b755181	0.0037432613
40	0x3b46d40c	0.0030338792
41	0xb9e2db43	-0.00043269442
42	0xb9a11ea4	-0.00030731142
43	0xbaac394e	-0.0013139637
44	0xb99d9d83	-0.0003006273
45	0xbaeb081c	-0.0017931494
46	0x36edaae0	7.083043e-06
47	0x3b281c84	0.0025651762
48	0xba826fca	-0.0009951529
49	0xba27efd0	-0.0006406279
50	0xba1ac7c3	-0.00059044006
51	0x394f2b74	0.00019757246
52	0xba06193e	-0.0005115456
53	0xba8065ca	-0.000979596
54	0xba2473c5	-0.00062733545
55	0x3a020324	0.00049595744
56	0xb99e63a5	-0.0003021035
57	0x3a73097c	0.00092711276
58	0x3a85dee6	0.0010213524
59	0x3a1bfef5	0.00059507723
60	0x3a55d92a	0.0008157665
61	0xba2f4c25	-0.00066870666
62	0x399d68e6	0.0003002353
63	0x3aa887fd	0.001285791
64	0xb779720d	-1.4868111e-05
65	0xb8239da5	-3.9009046e-05
66	0xb8779467	-5.90276e-05
67	0x36dbb4eb	6.54777e-06
68	0xb8420fa7	-4.626778e-05
69	0xb819f452	-3.6705584e-05
70	0x372c667f	1.0275863e-05
71	0x37c3620d	2.329147e-05
72	0xb85ada02	-5.2178286e-05
73	0xb68869ef	-4.065448e-06
74	0xb8d28aad	-0.00010039411
75	0x3607e773	2.0251289e-06
76	0x381bf35f	3.7181537e-05
77	0x383eb5ba	4.5468776e-05
78	0xb5bb9ecd	-1.3978803e-06
79	0xb862f819	-5.4113658e-05
80	0xb868baca	-5.548707e-05
81	0xb9751163	-0.00023371498
82	0xb9170177	-0.00014401028
83	0x3a1db539	0.0006016079
84	0x390f6620	0.00013675587
85	0xb9d65bb2	-0.0004088558
86	0xb9b57f76	-0.00034617976
87	0x39e9cd5b	0.00044594225
88	0x3981b298	0.0002473786
89	0xba2b35f6	-0.0006531173
90	0x39ad8b73	0.0003310103
91	0x398e3859	0.00027126333
92	0xb7a1b11f	-1.9275174e-05
93	0xba0d0c28	-0.00053805346
94	0x39e39227	0.00043405706
95	0xb9f5de85	-0.00046895831
96	0x379e7546	1.8889677e-05
97	0xb88d9d41	-6.752695e-05
98	0x3917e049	0.00014484035
99	0x393ddb67	0.00018106178
100	0xb76b9f1f	-1.404414e-05
101	0x38a22b10	7.732783e-05
102	0xb8e8327f	-0.00011072028
103	0x392eb09d	0.00016659727
104	0xb869a93d	-5.5709144e-05
105	0x37a8a565	2.0104178e-05
106	0xb90645cd	-0.00012805239
107	0x38a399d2	7.801097e-05
108	0x389eb0cf	7.56696e-05
109	0xb72a8768	-1.0164316e-05
110	0xb956ab83	-0.00020472523
111	0x38b7a7fc	8.7574095e-05
112	0xb7c178be	-2.3063618e-05
113	0x383708a3	4.3638644e-05
114	0xb90d5216	-0.00013477387
115	0x38bb5eb8	8.9344976e-05
116	0x392067c3	0.00015297443
117	0x38313ce7	4.225681e-05
118	0x39059471	0.00012739167
119	0xb8d714a4	-0.000102558435
120	0xb8d10519	-9.966846e-05
121	0xb755c244	-1.274102e-05
122	0xb7f68fc6	-2.9392435e-05
123	0xb88490fc	-6.321256e-05
124	0xb8d822e6	-0.00010306183
125	0x3902ec34	0.00012485759
126	0x388608d4	6.391262e-05
127	0xb91f482d	-0.00015190309
128	0xba93d8ec	-0.0011279858
129	0x3b5d928a	0.0033809268
130	0x3b24a0a0	0.0025120154
131	0x39507637	0.00019880464
132	0x39bb1f19	0.0003569059
133	0x39826b8a	0.00024875655
134	0x3ab31164	0.0013661799
135	0x3b9565a0	0.004559234
136	0xb9cdc90d	-0.00039250441
137	0x3b23cbe5	0.0024993357
138	0x3b354475	0.0027659212
139	0x3a954bde	0.0011390408
140	0x3a00b245	0.0004909377
141	0xb9cc0c63	-0.0003891914
142	0xbab69463	-0.0013929721
143	0xba8aec22	-0.0010598938
144	0xba012709	-0.0004926776
145	0xba2e7b53	-0.000665595
146	0xbb351a79	-0.0027634187
147	0xbaa02116	-0.0012216892
148	0x3b3a0860	0.002838634
149	0xbad381fd	-0.0016136762
150	0xb8eb2693	-0.00011212858
151	0x3a283e9a	0.000641802
152	0xbad640c5	-0.0016346207
153	0x3b604633	0.003422153
154	0xbb085639	-0.0020803346
155	0xbb647b04	-0.0034863362
156	0xbb94da79	-0.0045426455
157	0xb9b3dea9	-0.00034307435
158	0xba12f831	-0.00056064414
159	0xba8cc118	-0.0010738699
160	0x3a3781d0	0.00070002396
161	0xbaab52c0	-0.0013070926
162	0x3b89b01f	0.0042019035
163	0xba4f48a6	-0.0007907249
164	0x3b65f8aa	0.0035090842
165	0xbaef55f0	-0.0018259864
166	0xbb055a21	-0.002034791
167	0xbad7be4f	-0.0016459915
168	0x3b14bc3f	0.0022695211
169	0xba3e045d	-0.0007248575
170	0xbb097b2e	-0.0020977962
171	0xba7b7871	-0.00095928373
172	0xb9554018	-0.0002033714
173	0xbaeb7532	-0.0017964004
174	0xbaed389d	-0.0018098537
175	0x3b10bef5	0.0022086476
176	0xbb0bfe7f	-0.0021361408
177	0x3a6f581f	0.00091302575
178	0x3b869a73	0.0041077673
179	0xb9db8506	-0.00041870045
180	0xba8d1ed6	-0.0010766636
181	0x3ac003ad	0.0014649533
182	0x3bc2617a	0.0059320303
183	0xbab66d4f	-0.0013918075
184	0x3a987c44	0.0011633714
185	0x3ab2888b	0.0013621015
186	0xba778b22	-0.00094430347
187	0xbac7f02f	-0.0015254075
188	0xbb40a3d2	-0.002939452
189	0xba59d19c	-0.00083091273
190	0xbafce9c2	-0.001929574
191	0xba5a3bd2	-0.0008324954

layers.0.self_attn.out_proj.weight f4 [64, 64]
0	0xbd77021a	-0.06030474
1	0x3daf363a	0.08555265
2	0xbd47311d	-0.048630822
3	0x3d6db5c8	0.05803469
4	0xbdbc140e	-0.09183513
5	0xbde638f6	-0.11241333
6	0x3db7a8f2	0.08967771
7	0x3d73b0c5	0.059494752
8	0x3df01cc8	0.117242396
9	0x3b41260d	0.0029472143
10	0xbdbdc8ca	-0.09266813
11	0xbd9b8c7f	-0.07595157
12	0xbdd9b15a	-0.1062953
13	0xbd190adb	-0.03736387
14	0x3bb509fb	0.0055248714
15	0x3d531485	0.05153324
16	0x3d713b3d	0.058894385
17	0x3d93fc96	0.07225911
18	0x3d72344c	0.059131905
19	0xbdaa7ef4	-0.08324996
20	0x3b51b373	0.003199783
21	0xbd89bab3	-0.06725063
22	0xbdd4e8bc	-0.10395953
23	0x3bae079e	0.0053109666
24	0x3ce19483	0.027536636
25	0xbd16e54e	-0.036839776
26	0x3dab9876	0.08378689
27	0xbd4e4028	-0.050354153
28	0x3df38317	0.11890238
29	0x3daf6fb0	0.085662246
30	0x3db1d99f	0.08684086
31	0x3dcc3bc4	0.09972337
32	0xbda44ccb	-0.080224596
33	0xbdbed901	-0.09318734
34	0xbd6d8345	-0.057986517
35	0x3dd93af3	0.10606947
36	0xbdc549cd	-0.09633217
37	0x3d83f83c	0.06443831
38	0xbd0f8c5e	-0.035045974
39	0xbd9e1d0a	-0.077203825
40	0xbd9ac2cf	-0.07556688
41	0x3cbc1fb1	0.02296433
42	0xbcc03501	-0.023462774
43	0xbc2a2790	-0.010385409
44	0x3d8c5fdc	0.06854221
45	0xbcb06b6b	-0.021535596
46	0x3c42d20f	0.011890902
47	0x3c9fa24a	0.019486565
48	0xbd34e3e0	-0.04416263
49	0xbd90bc0b	-0.07067116
50	0xbba688bd	-0.0050822184
51	0xbd319279	-0.043352578
52	0xbde922f4	-0.1138362
53	0x3df649bb	0.12025782
54	0xbdba9f40	-0.09112406
55	0xbcd2f91e	-0.025753554
56	0xbdf886ae	-0.12135063
57	0x3dc49a2f	0.09599721
58	0x3dbc9746	0.092085406
59	0xbc391e29	-0.011298695
60	0xbd8b98ad	-0.0681623
61	0x3dc5e470	0.096627116
62	0x3df7122e	0.120640144
63	0x39c80ab0	0.00038154935
64	0xbd958b33	-0.07301941
65	0x3c9212c7	0.01783122
66	0x3ca8ddbe	0.020613547
67	0xbd224a85	-0.03962185
68	0x3daef3b2	0.08542575
69	0x3bd7d670	0.0065868422
70	0x3d0be5f9	0.034154866
71	0x3dbf93a9	0.09354336
72	0xbdc227a6	-0.094802186
73	0xbbe3b9b4	-0.006949628
74	0xbdfac2dd	-0.122441985
75	0x3dd3e463	0.10346296
76	0x3ddf3bd3	0.109000824
77	0x3defba14	0.117054135
78	0xbdc84059	-0.09777898
79	0xbd7b0caf	-0.061291393
80	0xbdb25547	-0.087076716
81	0xbe0153a7	-0.12629567
82	0x3c9ba4c7	0.01899947
83	0x3dfbabfd	0.122886635
84	0x3a6afea0	0.00089643337
85	0x3d2b6d80	0.041852474
86	0x3d63abd8	0.055583805
87	0x3dc5cee1	0.096586
88	0xbd77dd50	-0.060513794
89	0x3dd06497	0.10175436
90	0x3d8f09cf	0.06984293
91	0xbcd5c049	-0.026092665
92	0xbd62cb9f	-0.05536997
93	0xbda645fd	-0.08118818
94	0x3c3f5140	0.011677086
95	0x3dc7c44b	0.09754237
96	0x3d980632	0.07423057
97	0x3d4e2825	0.050331254
98	0xbdcfa526	-0.101389214
99	0x3db2af13	0.08724799
100	0xbdf00dec	-0.117214054
101	0xbdafb5f3	-0.08579626
102	0x3ce92619	0.02846055
103	0xbc82f919	-0.01598792
104	0x3cded0d1	0.02719918
105	0x3d17b35a	0.037036277
106	0xbbcb70be	-0.0062085083
107	0xbda3b890	-0.07994187
108	0x3d1c7038	0.038192958
109	0xbcead2a5	-0.028664896
110	0xbd0bf821	-0.03417218
111	0x3d9e9995	0.07744137
112	0x3de1ef48	0.110319674
113	0x3dfc00bd	0.12304828
114	0xbc9dad8a	-0.019247789
115	0xbdc9e853	-0.098587655
116	0xbd9abac7	-0.07555156
117	0xbc875645	-0.016520629
118	0x3c8f4871	0.017490597
119	0xbd6021aa	-0.054719605
120	0x3d290d45	0.04127242
121	0xbacaa23c	-0.0015459727
122	0x3dee6037	0.11639445
123	0x3cf6b178	0.03011392
124	0xbd9fd404	-0.07804111
125	0x3d10ceb5	0.03535338
126	0x3c7351c2	0.014851036
127	0xbde78c68	-0.11306077
128	0xbd38116d	-0.044938494
129	0x3d35e021	0.0444032
130	0x3dfca373	0.12335863
131	0x3ddfa72f	0.109205596
132	0x3bdcd4bf	0.0067392285
133	0x3c27602c	0.0102158
134	0x3d699c62	0.057033904
135	0xbdd38938	-0.10328907
136	0xbbfb7d3f	-0.0076748426
137	0xbcff6c2f	-0.031179516
138	0x3c345867	0.011007405
139	0x3deb8254	0.114994675
140	0xbde5a021	-0.11212183
141	0x3d8de87e	0.0692911
142	0xbddb18fa	-0.10698123
143	0x3d8f0dc9	0.06985051
144	0x3d120289	0.03564695
145	0xbd43a1fa	-0.047761895
146	0x3d9ee622	0.07758738
147	0x3dd57e9a	0.10424538
148	0xbdd0fa73	-0.102040194
149	0x3dbe5f47	0.092955165
150	0xbd9113c2	-0.07083847
151	0x3b919790	0.0044431165
152	0x3dbf7f20	0.09350419
153	0x3d22102b	0.0395662
154	0xbd8f0406	-0.06983189
155	0x3d586576	0.052831136
156	0xbd8fdf83	-0.07025053
157	0x3dd51db3	0.10406055
158	0x3d064349	0.032779012
159	0x3d8f7f7f	0.0700674
160	0x3d1a904f	0.03773528
161	0xbd69e1dd	-0.057100166
162	0xbc966129	-0.018356876
163	0xbd838e2c	-0.064236015
164	0x3decdadf	0.11565184
165	0x3c9ef78f	0.019405155
166	0x3dbc9ac1	0.092092045
167	0x3cbe0c8d	0.023199344
168	0x3dc1d579	0.09464545
169	0xbc59abbe	-0.013285575
170	0x3dd8ea31	0.105915435
171	0x3de046d0	0.109510064
172	0x3d775f26	0.060393475
173	0xbcb1c7c1	-0.021701695
174	0x3d340c35	0.043956954
175	0xbd083e89	-0.033262763
176	0x3d5b96b3	0.053610515
177	0x3bc727cc	0.006077742
178	0xbde64401	-0.112434395
179	0xbd86236c	-0.06549725
180	0x3d369d97	0.044583883
181	0xbdfe1569	-0.124064274
182	0x3db2bd9b	0.087275706
183	0x3c80e05f	0.015731988
184	0x3d42936b	0.04750387
185	0xbc36e323	-0.011162552
186	0x3d561019	0.052261446
187	0x3d45b135	0.0482647
188	0xbbcffe00	-0.006347418
189	0xbd52e193	-0.051484656
190	0xbdf422da	-0.1192071
191	0xbdcbe938	-0.09956592
192	0x3cf1b6d2	0.02950612
193	0xbd9374b1	-0.071999915
194	0x3d92f8a8	0.07176334
195	0x3d849f83	0.06475737
196	0x3d8cf961	0.06883503
197	0xbd71b85e	-0.059013717
198	0xbd4f035d	-0.050540317
199	0x3de0775f	0.10960268
200	0x3d3fc586	0.046819232
201	0x3ba774b2	0.0051103467
202	0x3c845657	0.016154451
203	0xbdb43007	-0.08798223
204	0x3d120501	0.035649303
205	0xbd5f46de	-0.054510944
206	0xbdc3e87f	-0.095658295
207	0x3dd0948f	0.10184585
208	0xbdfe0f9e	-0.124053225
209	0x3d8008da	0.06251688
210	0x3deabf8b	0.11462315
211	0xbd335381	-0.043780807
212	0xbcdc44f5	-0.02688835
213	0x3dcbfaef	0.09959971
214	0x3d290c82	0.041271694
215	0x3ca47013	0.020072972
216	0x3d86697a	0.06563087
217	0x3cabbbcd	0.020963574
218	0x3d1d5c96	0.038418375
219	0xbda31bc3	-0.079642795
220	0x3d95dd6c	0.073176235
221	0xbd80a20f	-0.0628091
222	0xbd6d9cb7	-0.058010783
223	0xbd8bc4d2	-0.0682465
224	0x3d985405	0.074379005
225	0x3c9d0e4a	0.019171853
226	0x3dfe678e	0.12422095
227	0xbd416071	-0.047211114
228	0x3d5da078	0.054108113
229	0x3d96706e	0.07345663
230	0x3d1c714b	0.038193982
231	0xbdf2a0a8	-0.11847049
232	0x3dcb0b1c	0.09914228
233	0x3d3c989f	0.04604399
234	0x3ceb0085	0.028686771
235	0xbd89ecba	-0.06734605
236	0x3d3eb5d2	0.046560116
237	0xbdcf1b4f	-0.101126306
238	0xbdd2768f	-0.102765195
239	0xbdc8eab2	-0.098103896
240	0xbc828d48	-0.015936509
241	0x3d613a08	0.054986984
242	0xbcd39cd5	-0.02583162
243	0xbdbb0af0	-0.091329455
244	0xbd02f3ee	-0.03197091
245	0xbdf71f59	-0.12066526
246	0xbde48331	-0.11157835
247	0xbdf9d97b	-0.12199684
248	0x3d1a7f59	0.037719104
249	0xbd9969e5	-0.07490901
250	0x3dca18b2	0.098679915
251	0xbcfdd96a	-0.03098746
252	0x3d15b9c2	0.036554106
253	0x3d01993b	0.031640273
254	0x3dce3223	0.100681566
255	0xbc650e99	-0.013980531

layers.0.self_attn.out_proj.bias f4 [64]
0	0xbb39c3f3	-0.0028345555
1	0x3a036e83	0.0005013721
2	0x3972932c	0.00023133744
3	0x39ac6a78	0.00032885722
4	0x3a959cda	0.0011414543
5	0x3ad7d7ce	0.0016467513
6	0x38d9cef8	0.00010385917
7	0xbaf15786	-0.0018412925
8	0x3a8cf33b	0.0010753641
9	0x3a4d3b53	0.00078289694
10	0xba186ba6	-0.0005814381
11	0x3b043151	0.0020170996
12	0xbb852c9c	-0.0040641557
13	0xbae922ec	-0.0017786897
14	0xbb158e49	-0.0022820404
15	0xb9088308	-0.00013018784
16	0xb84df552	-4.910428e-05
17	0xbac21ea1	-0.0014810154
18	0x3a65db98	0.0008768379
19	0xba8cea3f	-0.0010750963
20	0x3b11145d	0.0022137382
21	0xb9ae1c71	-0.00033209057
22	0x3a956cab	0.0011400183
23	0xbbbc980b	-0.0057554296
24	0x3aa8a6db	0.001286711
25	0xbb3c978e	-0.0028776857
26	0x3b4f65ab	0.0031646292
27	0xba6b3227	-0.0008972012
28	0xb9588507	-0.00020648922
29	0xba826939	-0.0009949572
30	0xbb16d0d2	-0.002301265
31	0xbad5b8ba	-0.0016305663
32	0xbade6016	-0.0016965892
33	0x3ac462fc	0.0014983113
34	0xb94f87ca	-0.00019791644
35	0xb9df27e6	-0.000425636
36	0x3b212f82	0.0024594967
37	0xb830da95	-4.216524e-05
38	0xb9ac5cb0	-0.00032875454
39	0x3b4fecf3	0.0031726926
40	0x3b2693a6	0.0025417595
41	0xba606028	-0.000855925
42	0xb9edfb8c	-0.0004539158
43	0xbab91e52	-0.0014123416
44	0x3a1c7516	0.0005968375
45	0xba1059d6	-0.00055065507
46	0xb9309b33	-0.00016842484
47	0xb9f06f1e	-0.00045859156
48	0xbb947af8	-0.0045312606
49	0x3b37f4ff	0.0028069613
50	0xbad9c5d0	-0.0016614739
51	0xb99967e2	-0.00029259833
52	0x3ad2453a	0.001604236
53	0xb9b7385e	-0.00034946477
54	0xbb8b9c4d	-0.004260576
55	0x398c9535	0.0002681405
56	0x3a534613	0.0008059453
57	0xba836f59	-0.0010027691
58	0x3a549d91	0.00081106374
59	0xba8a64d4	-0.0010558614
60	0x3b718c6c	0.003685738
61	0xbacc413c	-0.0015583406
62	0x3974a35a	0.00023330507
63	0x3bb246aa	0.0054405527

layers.0.linear1.weight f4 [256, 64]
0	0x3d793fd0	0.060851872
1	0x3dd32e92	0.10311617
2	0xbd8242f8	-0.063604295
3	0xbd953ca1	-0.07286955
4	0xbb6aac51	-0.0035808275
5	0xbdc5b183	-0.09652998
6	0xbc1c3370	-0.009533748
7	0x3ce68432	0.028139208
8	0x3df4b555	0.11948649
9	0x3d064367	0.032779124
10	0xbce4c432	-0.027925584
11	0x3d5eed65	0.054425616
12	0x3d92f2b0	0.07175195
13	0x3d00a3d4	0.03140624
14	0xbdba4882	-0.09095861
15	0x3dedb3b6	0.11606543
16	0x3cb58509	0.022158163
17	0x3df2ce83	0.11855795
18	0x3dc24290	0.09485352
19	0x3d824eac	0.06362662
20	0xbd93d574	-0.07218447
21	0xbdb96d2b	-0.09054025
22	0x3db6275a	0.088942245
23	0xbde75a7d	-0.11296556
24	0x3d490b51	0.049083058
25	0x3dc578a3	0.0964215
26	0xbd29cc52	-0.04145462
27	0x3a82f397	0.0009990808
28	0xbc245bec	-0.0100316815
29	0xbde64778	-0.112441
30	0x3d8bf6c0	0.06834173
31	0x3d93e757	0.07221859
32	0x3da805c1	0.082042225
33	0xbe010a2a	-0.12601534
34	0x3d639f93	0.055572104
35	0xbdc39d54	-0.09551492
36	0x3da04182	0.078249946
37	0xbc9b19b3	-0.018933153
38	0xbdb4077c	-0.0879049
39	0x3a8a46d4	0.0010549673
40	0x3dff5967	0.12468224
41	0xbba09374	-0.0049003903
42	0x3dcfa992	0.10139765
43	0xbde91f1f	-0.11382889
44	0xbe019a2f	-0.12656473
45	0xbde9a967	-0.11409264
46	0xbd64a2d8	-0.055819362
47	0xbdc75289	-0.09732539
48	0xbbc27e38	-0.0059354566
49	0x3d081db5	0.033231456
50	0x3d92fa1d	0.071766116
51	0xbb3920cb	-0.0028248306
52	0x3dd7bdce	0.10534249
53	0xbd96e726	-0.07368307
54	0xbdffe009	-0.12493903
55	0xbdf18677	-0.11793225
56	0x3d15ff8e	0.03662067
57	0xbd7e1320	-0.062029958
58	0x3dac13d8	0.084022224
59	0x3bab5025	0.00522806
60	0xbd8763f4	-0.066108614
61	0xbd8d4b3d	-0.06899116
62	0x3d52bdd9	0.051450584
63	0x3da52b67	0.08064919
64	0xbde5c499	-0.11219139
65	0x3d5a1d23	0.053250443
66	0x3d49d42e	0.049274616
67	0x3e002aec	0.12516373
68	0x3d1a640f	0.03769308
69	0xbd413214	-0.0471669
70	0xbbe8fc98	-0.0071101896
71	0xbd807b5e	-0.062735304
72	0x3dbd267e	0.092358574
73	0xbd5da8d1	-0.054116074
74	0xbdbdfd3f	-0.092768185
75	0x3d53ef9f	0.051742192
76	0xbd64b667	-0.055838015
77	0xbdafaccd	-0.08577881
78	0x3dc2f8af	0.09520089
79	0x3d53bc63	0.05169333
80	0x3c2c78c4	0.01052684
81	0xbdc50513	-0.096201085
82	0xbd0be351	-0.034152333
83	0xbd60d077	-0.054886308
84	0xbd0ef4eb	-0.03490154
85	0x3dc8f055	0.09811465
86	0x3df19f0d	0.11797915
87	0x3d925095	0.07144276
88	0x3dc747f6	0.09730522
89	0xbde18bef	-0.11013018
90	0xbd1159ed	-0.03548615
91	0x3d9155e6	0.07096462
92	0x3d63969b	0.05556355
93	0xbd933262	-0.07187344
94	0x3e0187e3	0.12649493
95	0x3de67f30	0.11254728
96	0xbda8bb6f	-0.08238875
97	0xbca5c707	-0.020236505
98	0x3d45df33	0.048308562
99	0x3dcfb04b	0.10141047
100	0x3ca9b2f9	0.020715224
101	0x3da04d00	0.078271866
102	0xbd921171	-0.07132233
103	0x3d93c6e0	0.07215667
104	0x3dae08b6	0.08497755
105	0x3d85fc06	0.0654221
106	0xbdb95fe4	-0.09051493
107	0x3d9e9365	0.07742957
108	0x3d3a5fe1	0.045501594
109	0x3d051921	0.032494668
110	0xbd22c2ce	-0.03973656
111	0x3ded583a	0.115890935
112	0xbd8f0479	-0.06983275
113	0x3d2beac2	0.04197193
114	0x3ddb27eb	0.10700973
115	0x3de52f04	0.11190608
116	0xbde8be29	-0.11364395
117	0x3ca4f605	0.020136843
118	0x3da6528f	0.081212156
119	0x3d698ed1	0.057020966
120	0xbd737d18	-0.05944547
121	0x3d3979fc	0.04528235
122	0x3d1437c4	0.036185995
123	0x3ccf0d4c	0.025274895
124	0xbd4a1bfb	-0.04934309
125	0x3bd7875e	0.0065774163
126	0x3db34eea	0.08755286
127	0xbd619bec	-0.05508034
128	0xbc93ef75	-0.018058518
129	0x3dbd44cb	0.09241637
130	0x3ddf410c	0.109010786
131	0x3ddc56dd	0.10758755
132	0xbd5262ce	-0.05136376
133	0xbdbbe5e2	-0.09174706
134	0xbd849d5b	-0.06475326
135	0x3baaebb6	0.005216087
136	0xbcc1915c	-0.023628883
137	0x3d921737	0.07133334
138	0xbdf4f398	-0.11960524
139	0xbd415547	-0.047200467
140	0xbd9c32ea	-0.076268986
141	0xbd4503d7	-0.048099365
142	0xbd2e6ab5	-0.042582233
143	0x3db6b0fa	0.08920474
144	0x3d94b4d1	0.072610505
145	0xbd83637a	-0.06415458
146	0xbdee417b	-0.11633583
147	0xbdbf3f4d	-0.093382455
148	0x3d7b734c	0.061389253
149	0x3c57efc7	0.013179726
150	0x3d101c93	0.0351835
151	0x3d49e725	0.049292702
152	0xbcc9cc19	-0.024633454
153	0x3c92c871	0.017917844
154	0xbd6ebc40	-0.058284998
155	0x3d1e83bf	0.03869986
156	0x3d243237	0.04008695
157	0xbda7af75	-0.08187763
158	0x3d3e4b46	0.046458505
159	0xbce37470	-0.027765483
160	0xbd971e9e	-0.07378887
161	0xbc9306c2	-0.017947558
162	0xbdf71eee	-0.12066446
163	0x3c5585f2	0.013032423
164	0x3de5d4e9	0.1122225
165	0x3d76ee97	0.06028613
166	0x3df98e42	0.12185337
167	0x3c2d9521	0.010594637
168	0xbcbaa606	-0.022784244
169	0xbda8ca7b	-0.08241745
170	0xbd48306d	-0.048874307
171	0xbd6b9072	-0.0575108
172	0x3d25bf2a	0.04046551
173	0xba520c84	-0.0008012729
174	0x3d915509	0.07096297
175	0xbd4bc3bd	-0.049747217
176	0x3dda749b	0.10666772
177	0xbd01656d	-0.031590868
178	0x3d848cd0	0.0647217
179	0xbd1169c5	-0.03550126
180	0x3dbca7da	0.09211703
181	0xbdfec275	-0.124394335
182	0x3da5ee2d	0.08102069
183	0xbdefb035	-0.11703531
184	0xbdecfd84	-0.11571792
185	0xbdabf544	-0.0839639
186	0xbd61c39a	-0.05511818
187	0x3db068c0	0.086137295
188	0x3d128fd0	0.03578168
189	0x3c5ffc26	0.013670957
190	0x3dceb236	0.10092585
191	0x3ccbe68c	0.024890207
192	0x3ce1a1c9	0.027542965
193	0x3d6339a8	0.055474907
194	0xbdb8b59d	-0.09019015
195	0xbcf9eb2c	-0.030507647
196	0xbd94888a	-0.07252605
197	0xbc97866c	-0.018496715
198	0x3ddb2b40	0.10701609
199	0xbd1cfcd1	-0.038327042
200	0x3de81e8f	0.113339536
201	0x3d1e3bc9	0.038631234
202	0xbc8b7b76	-0.017026644
203	0x3c99a3bd	0.018754834
204	0x3d59ade8	0.053144366
205	0x3bf07480	0.0073381066
206	0xbdf79e7c	-0.12090775
207	0x3e040ee5	0.12896307
208	0x3ce585f6	0.02801798
209	0xbd9e1699	-0.07719154
210	0xbdbb7334	-0.091528326
211	0xbda6bda9	-0.081416436
212	0xbde50b18	-0.111837566
213	0x3d871584	0.06595901
214	0x3d26d3c5	0.040729303
215	0x3c8954b2	0.016764019
216	0x3d653d3d	0.055966605
217	0x3d9b2564	0.07575491
218	0x3d8e9765	0.0696247
219	0x3dccd679	0.10001845
220	0xbe0ad774	-0.13558751
221	0xbcdcb00f	-0.02693942
222	0x3dce4357	0.10071438
223	0x3daa5e31	0.08318747
224	0x3d3e23f7	0.046421017
225	0xbd358ec2	-0.044325598
226	0x3da98025	0.08276395
227	0x3d8b23e5	0.06793956
228	0x3da31300	0.07962608
229	0x3dcd3895	0.10020558
230	0xbe06e7ca	-0.13174358
231	0x3ceeecdd	0.02916568
232	0xbd8a91a0	-0.06766057
233	0xbcae1c4a	-0.021253724
234	0x3cf435f8	0.02981089
235	0xbc0de237	-0.008659891
236	0x3d6fca6f	0.058542665
237	0x3c51eca9	0.012812772
238	0xbcaa93e5	-0.020822475
239	0xbda61848	-0.081101
240	0xb9dacba2	-0.00041731918
241	0xbc2266c2	-0.009912195
242	0xbd4d50c4	-0.050125852
243	0x3df625af	0.12018906
244	0x3d1d70cb	0.038437646
245	0xbdf1beb9	-0.118039556
246	0xbd83ec65	-0.06441573
247	0xbcc104f2	-0.023561928
248	0x3cf68203	0.030091291
249	0x3c0f39d0	0.008741811
250	0xbcb70500	-0.022341251
251	0x3cd51167	0.026009275
252	0x3ce5cbcc	0.02805128
253	0x3d85161e	0.06498359
254	0x3da5b717	0.08091562
255	0xbd638093	-0.05554254

layers.0.linear1.bias f4 [256]
0	0xbd0fecae	-0.035137825
1	0x3ddeaf0d	0.10873232
2	0xbd5b2e90	-0.053511202
3	0x3e026342	0.12733176
4	0xbcc9f28d	-0.02465179
5	0xbda25fba	-0.07928415
6	0xbdeb7da9	-0.11498577
7	0xbde007a5	-0.10938958
8	0xbd818cbc	-0.06325671
9	0xbdd1f7b8	-0.10252327
10	0x3db2ca97	0.08730047
11	0x3dd00502	0.10157205
12	0xbc002373	-0.007820952
13	0xbd20a749	-0.039222036
14	0x3df8fed6	0.12157981
15	0xbda2ecb8	-0.07955307
16	0xbd229676	-0.039694272
17	0xbdf5a6c0	-0.11994696
18	0xbc345e61	-0.01100883
19	0xbd97dd07	-0.074152045
20	0xbd6d52e0	-0.057940364
21	0xbdd79b96	-0.105277225
22	0x3df4303c	0.119232625
23	0xbd0c0b08	-0.034190208
24	0xbda62ef4	-0.08114424
25	0x3dc287d9	0.09498567
26	0xbda6d29f	-0.081456415
27	0x3da6ab42	0.081381336
28	0xbda1d638	-0.07902187
29	0x3d088671	0.03333134
30	0x3dd65bed	0.10466752
31	0xbd8f17e4	-0.06986979
32	0xbda3431f	-0.07971787
33	0xbdca2fde	-0.09872411
34	0x3de13673	0.109967135
35	0x3c45b23f	0.012066423
36	0x3d2ec6f8	0.04267022
37	0xbd57eaea	-0.052714266
38	0x3dff6650	0.124706864
39	0x3d813ff5	0.06311027
40	0xbce1444b	-0.027498385
41	0xbb89a02e	-0.004200003
42	0xbc669da0	-0.014075667
43	0xbd12d8fb	-0.03585146
44	0x3c774842	0.015092911
45	0xbd7230fc	-0.059128746
46	0x3dbe10b0	0.09280527
47	0x3d7f968b	0.06239943
48	0xbccf9569	-0.025339799
49	0xbdd62edc	-0.104581565
50	0xbdaf5ce0	-0.085626364
51	0x3d7684d0	0.060185254
52	0x3dd479a9	0.10374767
53	0x3df190d7	0.11795204
54	0x3cc727e4	0.024311014
55	0x3d89fae6	0.06737308
56	0xbdd6e2b6	-0.104924604
57	0x3d5c7b46	0.0538285
58	0x3cc1ebd0	0.023672014
59	0xbda84e13	-0.082180165
60	0xbdc1edcc	-0.09469184
61	0x3de32a42	0.110920444
62	0x3de6cd6a	0.112696484
63	0xbc872616	-0.016497653
64	0x3bf0a90e	0.0073443716
65	0xbd96a166	-0.07355003
66	0xbdb4dbc2	-0.08830978
67	0xbda17cce	-0.07885133
68	0xbc8a6955	-0.01689593
69	0x3d5a584e	0.05330687
70	0x3cdc08e6	0.026859712
71	0xbcc69358	-0.02424018
72	0xbdd48c55	-0.10378329
73	0xb9f33af8	-0.00046392507
74	0xbaac2506	-0.0013133592
75	0xbd94b32c	-0.07260737
76	0x3d461a72	0.048365064
77	0xbdc7ede3	-0.0976217
78	0x3dad41c1	0.08459807
79	0x3d377724	0.044791356
80	0xbcfbe7e0	-0.030750215
81	0xbd72e9d2	-0.05930502
82	0xbdde30b9	-0.10849137
83	0x3da8d98a	0.08244617
84	0xbd7cf027	-0.061752465
85	0x3d2c9abb	0.04213975
86	0x3d8d8dba	0.06911798
87	0x3df5882b	0.119888626
88	0xbbfb9eaf	-0.0076788287
89	0xbd18e898	-0.037331194
90	0xbd32dfaf	-0.043670353
91	0xbc837c13	-0.016050374
92	0x3d903728	0.0704177
93	0xbcb2abd9	-0.021810459
94	0xbe003ba2	-0.12522748
95	0x3d2bc918	0.041939825
96	0xbdce6eea	-0.10079749
97	0x3dc5540a	0.0963517
98	0x3d761791	0.06008107
99	0x3db0d6b4	0.08634701
100	0xbcce9065	-0.025215337
101	0x3de8d541	0.113688
102	0xbcaf333c	-0.021386735
103	0xbded33da	-0.115821555
104	0xbdab9231	-0.08377493
105	0x3dbd8c4e	0.092552766
106	0xbdfd340e	-0.12363444
107	0x3df0be4e	0.11755048
108	0x3ca26342	0.01982272
109	0x3da79e94	0.08184543
110	0xbd253375	-0.040332276
111	0xbd87ce90	-0.066311955
112	0x3df01791	0.11723245
113	0xbb90e826	-0.0044222055
114	0xbd7c4618	-0.061590284
115	0x3dcd166d	0.10014043
116	0xbd81c5dc	-0.06336567
117	0xbdb3d2f1	-0.08780468
118	0xbd7a7209	-0.06114391
119	0x3dac6f7c	0.084197015
120	0xbbb7aaa7	-0.00560506
121	0xbdcf66b8	-0.10127014
122	0x3cfa0c1f	0.030523358
123	0x3cecd198	0.028908536
124	0xbce86f53	-0.028373396
125	0x3ca7347e	0.020410772
126	0x3dac58fe	0.084154114
127	0x3d077b31	0.03307647
128	0xbdf6496d	-0.120257236
129	0xbd258a30	-0.04041499
130	0x3dd31dbf	0.10308408
131	0xbde3d45f	-0.11124491
132	0xbcd5105a	-0.026008774
133	0xbdd8a1bd	-0.10577724
134	0x3de9700c	0.11398324
135	0x3dfdbc86	0.123894736
136	0xbdeeb88b	-0.116562925
137	0x3d1cdf97	0.03829917
138	0x3dc5bb7e	0.09654902
139	0x3d325912	0.043541975
140	0xbdbd3899	-0.09239311
141	0x3dc3381e	0.09532188
142	0xbc0f3e9b	-0.008742954
143	0xbbe36174	-0.0069391076
144	0x3a0f89d3	0.00054755545
145	0x3d6a04b6	0.0571334
146	0xbd0862b2	-0.03329725
147	0x3dca3504	0.09873393
148	0xbdeb1e75	-0.114804186
149	0x3de7dcc6	0.11321406
150	0x3d8c6f6c	0.068571895
151	0x3e055956	0.1302236
152	0xbddcc492	-0.1077968
153	0xbc54d547	-0.012990302
154	0xbd9d3953	-0.07676949
155	0x3cb7a369	0.022416787
156	0xbd046a89	-0.032328162
157	0xbc8b19c6	-0.016980063
158	0xbb8677a9	-0.00410362
159	0x3cf1c043	0.029510623
160	0xbd8ab180	-0.06772137
161	0x3c2124f6	0.009835472
162	0xbddf4e18	-0.10903567
163	0x3b94f30f	0.0045455764
164	0xbdf05ce1	-0.11736465
165	0x3cdaa819	0.026691483
166	0x3d2fcc3e	0.04291939
167	0xbcc30a6b	-0.023808679
168	0xbd8a4ab0	-0.06752527
169	0x3a7137b8	0.0009201723
170	0x3dd635f0	0.104595065
171	0x3dd9a8c4	0.106278926
172	0x3da402b4	0.08008328
173	0xbdeee785	-0.116652526
174	0x3dc6ed4e	0.09713231
175	0x3dafd7f1	0.085861094
176	0x3dc31953	0.095263146
177	0x3de95067	0.11392289
178	0xbdab6c4c	-0.08370265
179	0xbd329ca0	-0.0436064
180	0xbde801b1	-0.113284476
181	0x3d15d199	0.03657684
182	0x3ddf535f	0.10904574
183	0x3dce85e8	0.10084134
184	0x3c00099b	0.00781479
185	0x3dcbf33b	0.09958502
186	0x3dcd727f	0.10031604
187	0xbc7c5b9d	-0.015402702
188	0x3c945b40	0.018109918
189	0xbd4440bc	-0.047913298
190	0x3d087d48	0.033322603
191	0x3de58ecf	0.11208879
192	0xbdb81e3b	-0.08990141
193	0xbd53fc83	-0.051754486
194	0xbd61912e	-0.055070095
195	0xbd19572d	-0.037436653
196	0x3c0f2825	0.008737599
197	0x3c8746b0	0.016513199
198	0xbd8894a3	-0.06668975
199	0x3c3481ca	0.011017272
200	0xbdf52652	-0.119702
201	0xbb8be129	-0.0042687845
202	0x3d7a2fb8	0.061080664
203	0x3d9ef159	0.07760877
204	0x3d09c608	0.033636123
205	0xbd2e4aa3	-0.042551648
206	0xbd203ccc	-0.03912048
207	0x3df6c37a	0.12049003
208	0xbcb67181	-0.02227092
209	0x3d79c435	0.060978133
210	0xbd68cfa5	-0.05683865
211	0x3df5c954	0.12001291
212	0xbc349db2	-0.011023926
213	0xbd76f8e0	-0.06029594
214	0x3dac40ba	0.08410783
215	0xbde4df10	-0.11175358
216	0x3d70b94c	0.058770463
217	0xbde73d57	-0.112909965
218	0x3d2f5cdc	0.042813167
219	0x3c09758e	0.008389844
220	0x3d2a1d02	0.04153157
221	0xbd873d0e	-0.06603442
222	0xbdd89ea0	-0.1057713
223	0xbdc1c304	-0.094610244
224	0xbc68b59f	-0.014203458
225	0xbdea5c65	-0.11443404
226	0xbd986587	-0.0744124
227	0x3de96d00	0.11397743
228	0xbd1c27f3	-0.038124036
229	0xbc5369bb	-0.012903626
230	0x3d1f67a0	0.038917184
231	0x3d879907	0.066209845
232	0xbd1f2fc2	-0.038863905
233	0x3dbfd9f3	0.093677424
234	0xbc897be7	-0.016782714
235	0x3da56c37	0.08077281
236	0xbc9d20d4	-0.019180693
237	0xbdbe3473	-0.09287348
238	0x3df6a166	0.12042503
239	0x3dd49547	0.10380035
240	0x3c2cf80c	0.010557186
241	0x3dd0876b	0.10182079
242	0xbda0f32c	-0.07858881
243	0x3dc9aedf	0.09847807
244	0x3d78d8cc	0.06075363
245	0xbdcf1a9a	-0.10112496
246	0x3d661de2	0.056180842
247	0xbdf2e807	-0.11860662
248	0x3cfe26b3	0.031024313
249	0xbdd58c63	-0.10427167
250	0x3da03523	0.07822635
251	0xbd97ece6	-0.07418232
252	0xbddb7d9f	-0.1071732
253	0xbd9ef2d0	-0.077611566
254	0xbda09223	-0.07840373
255	0x3d105fdd	0.035247672

layers.0.linear2.weight f4 [64, 256]
0	0x3c0135fc	0.007886406
1	0x3d4edd42	0.050503977
2	0x3affe92d	0.0019524448
3	0xbd2caf62	-0.042159446
4	0xbcb76d4f	-0.02239099
5	0x3c829e8b	0.01594474
6	0x3cf7e886	0.030262243
7	0x3c8f9bc8	0.017530337
8	0xbcf4f493	-0.029901778
9	0x3c8ea6a2	0.017413441
10	0xbcf45b5f	-0.029828725
11	0x3cc4fddb	0.024046829
12	0x3d33ddba	0.043912627
13	0x3d578605	0.052618045
14	0x3c725443	0.014790597
15	0x3c9b6b14	0.018971957
16	0xbd549b34	-0.051905826
17	0xbd551da8	-0.052030236
18	0xbd490743	-0.04907919
19	0xbcc634a9	-0.024195032
20	0x3d51719e	0.051133744
21	0xbbd8b6d6	-0.0066135926
22	0x3cf251ce	0.029580023
23	0xbc9d9a99	-0.019238757
24	0x3d4af211	0.04954726
25	0x3d693074	0.056930974
26	0xbcf76c01	-0.030202867
27	0xbca26745	-0.019824633
28	0x3d1b1992	0.037866183
29	0x3d3e99c4	0.04653336
30	0xbd301415	-0.0429879
31	0xbd039a48	-0.032129556
32	0x3c6c91bc	0.014439043
33	0xbd34898a	-0.04407648
34	0xbcab53d8	-0.020914003
35	0xbcd159c7	-0.025555504
36	0x3c43811a	0.011932636
37	0xbcef4311	-0.029206784
38	0x3d0a98c5	0.0338371
39	0x3c2deb49	0.010615178
40	0xbc6ed9d8	-0.014578305
41	0xbd08a261	-0.03335798
42	0x3c0a946f	0.008458241
43	0x3d3ef445	0.046619672
44	0xbd552675	-0.05203863
45	0x3d07aaf1	0.033122007
46	0xbd782799	-0.06058464
47	0x3d3100d5	0.043213684
48	0x3cbf1381	0.02332473
49	0xbd0ab117	-0.033860292
50	0xbc411089	-0.011783727
51	0x3d36d823	0.044639718
52	0x3c95090c	0.01819279
53	0xbd46ae93	-0.04850633
54	0x3d2fcbec	0.042919084
55	0x3c03f7bf	0.008054673
56	0xbbe9a33a	-0.007130054
57	0x3c844eb0	0.016150802
58	0xbb9b2b93	-0.004735419
59	0xbc941108	-0.018074527
60	0x3d81ce32	0.06338157
61	0xbd6bed4e	-0.05759936
62	0x3c869ef6	0.01643322
63	0x3cfd33f5	0.030908564
64	0x3d87f71e	0.06638931
65	0x3c79e675	0.015252699
66	0x3d2919fc	0.041284546
67	0xbc2c9e39	-0.01053577
68	0xbcdac3a3	-0.026704615
69	0x3bf6390a	0.007514124
70	0xbc2cf329	-0.010556021
71	0x3d354fa7	0.044265416
72	0xbbd841d9	-0.0065996465
73	0x3ce848fc	0.028355114
74	0x3b406029	0.002935419
75	0xbca42e64	-0.020041652
76	0xbccbe43e	-0.024889108
77	0x3c84dd61	0.016218843
78	0x3d0078f1	0.03136534
79	0x3adf2b2d	0.0017026417
80	0x3d1c02da	0.038088657
81	0xbc8230b6	-0.015892368
82	0x3cfd4e52	0.030921135
83	0x3b06ab2e	0.0020548808
84	0x3c29d825	0.010366474
85	0x3d60ac27	0.054851677
86	0x3c633c02	0.013869287
87	0xbd44ce88	-0.048048526
88	0x3d6b91e6	0.057512186
89	0x3cde069c	0.027102761
90	0x3c8f4ada	0.017491747
91	0x3bdf8061	0.006820724
92	0xbc665043	-0.014057222
93	0xba21c644	-0.00061712065
94	0xbbb6eb3b	-0.005582241
95	0x3d5b5c9b	0.053555112
96	0xbd1986fa	-0.03748224
97	0xbbc52610	-0.0060165003
98	0x3d21a1f6	0.0394611
99	0xbd0dd70f	-0.034628924
100	0x3c5bee32	0.013423489
101	0x3bb92b8a	0.005650942
102	0xbc038448	-0.008027144
103	0x3d8c249a	0.06842919
104	0xbc9ec30e	-0.019380119
105	0xbc9e1661	-0.01929778
106	0x3c2b9835	0.010473301
107	0x3d00b2a1	0.031420354
108	0x3c890a7b	0.01672863
109	0x3d44883d	0.04798149
110	0xbc513bf0	-0.012770638
111	0x3c540cb5	0.012942483
112	0x3d508cf0	0.05091566
113	0x3d81b14e	0.06332646
114	0x3d7c4aca	0.061594762
115	0x3d34aac7	0.04410818
116	0x3d4bf79a	0.049796678
117	0x3d4c959d	0.04994737
118	0x3d33aa5c	0.04386364
119	0xbb05ee70	-0.002043631
120	0x3d8ade9f	0.06780743
121	0xbbe4c31f	-0.006981268
122	0xbc9064d4	-0.017626204
123	0xbd0ed2b0	-0.034868896
124	0x3cfc662f	0.030810444
125	0xbc9e14c2	-0.019297007
126	0xbcb3d361	-0.02195138
127	0x3cd649c0	0.026158214
128	0x3d42b8a6	0.047539376
129	0xbd5fdbe6	-0.05465307
130	0xbd74f759	-0.0598062
131	0xbcd6bb8e	-0.02621248
132	0x3c86977c	0.016429655
133	0xbc1ed20f	-0.009693637
134	0x3d57a060	0.05264318
135	0x3cf6aabe	0.030110713
136	0x3c702bce	0.014658881
137	0x3d4def28	0.050276905
138	0x3cbc38df	0.022976337
139	0x3cccdc22	0.025007311
140	0xbd25a69a	-0.040442087
141	0x3d038b6d	0.03211539
142	0xbd77384f	-0.060356434
143	0xba895117	-0.0010476437
144	0xbcbb2944	-0.022846825
145	0xbd8beb2f	-0.06831967
146	0xbd7747e8	-0.06037131
147	0xbcc7dc32	-0.02439699
148	0x3d6b1fdd	0.057403434
149	0xbcf702c4	-0.030152686
150	0xba779f75	-0.0009446063
151	0xba0a245e	-0.00052697014
152	0x3d64d858	0.055870384
153	0xbb3c499a	-0.0028730393
154	0x3d6f49fd	0.05842017
155	0x3d0fa2b6	0.035067283
156	0x3cbd2949	0.023090975
157	0x3d01ec1a	0.031719305
158	0xbd7800aa	-0.06054751
159	0x3d5c0dc0	0.05372405
160	0x3d5f7a4a	0.054559983
161	0xbc0451dd	-0.008076158
162	0xbc8b0e51	-0.0169746
163	0x3a5746f4	0.0008212172
164	0x3d5e778e	0.054313235
165	0xbd20c869	-0.039253626
166	0x3d0b6458	0.034031242
167	0xbce7dff8	-0.028305039
168	0x3d27fb24	0.04101099
169	0x3d545c55	0.051845867
170	0xbd5534b4	-0.052052215
171	0x3c46e520	0.012139589
172	0x3c726548	0.014794655
173	0x3cd8ffa7	0.026489092
174	0xbd55a60b	-0.052160304
175	0x3a5aeb9c	0.00083511486
176	0x3cb11b07	0.021619333
177	0xbcd25299	-0.025674151
178	0x3d1daaa4	0.038492814
179	0x3d399b65	0.04531421
180	0xbc599bcd	-0.013281775
181	0xbafa3e5a	-0.0019092069
182	0x3cc37f25	0.023864338
183	0x3cfa8bc9	0.030584233
184	0x3d6a19f8	0.057153672
185	0xbca5361e	-0.020167407
186	0xbcd70e6f	-0.026252
187	0x39f3f735	0.00046532755
188	0xbcbef7e9	-0.023311572
189	0x3a532b62	0.0008055476
190	0xbd331b1d	-0.04372703
191	0xbd04323d	-0.032274473
192	0xbd0380b6	-0.03210517
193	0x3d6c435a	0.05768142
194	0xbb9b14c8	-0.004732702
195	0xbd623976	-0.05523058
196	0xbd0a2438	-0.033725947
197	0xbd66d40f	-0.05635458
198	0xbca9d12a	-0.02072962
199	0x3d68fb3a	0.056880213
200	0xbc5154ff	-0.012776612
201	0xbd60bf1c	-0.054869756
202	0x3d0bee17	0.034162607
203	0x3c78671f	0.015161305
204	0x3c0d60e4	0.008629058
205	0xbd593360	-0.05302751
206	0x3c68676f	0.014184817
207	0xbd662aa4	-0.05619301
208	0xbad60134	-0.0016327263
209	0xbd451418	-0.048114866
210	0x3a9c403b	0.0011920998
211	0xbd3eac50	-0.04655105
212	0xbd459c29	-0.04824463
213	0xbd73b3ac	-0.05949752
214	0x3ccab7ab	0.024745783
215	0xbce33a27	-0.02773769
216	0x3d67bcc4	0.056576505
217	0xbd5d023e	-0.053957216
218	0xbc8a7e82	-0.016906027
219	0x3cd2a75d	0.02571457
220	0x3d206ba5	0.039165158
221	0xbd718efe	-0.05897426
222	0xbc8a25c2	-0.016863707
223	0xbc44d907	-0.012014634
224	0xbd126c98	-0.035748094
225	0xb9f7ac1d	-0.00047239746
226	0x3d1164e4	0.035496607
227	0xbcdfba3d	-0.027310485
228	0xbcb09203	-0.021553999
229	0x3d6da25e	0.058016174
230	0xbcfa31c5	-0.03054131
231	0xbb031832	-0.0020003435
232	0x3bb81ea2	0.005618886
233	0x3c1dfb13	0.00964238
234	0xbd039f62	-0.03213442
235	0xbc58b555	-0.013226827
236	0x3c913bc8	0.017728701
237	0xbd5c78a8	-0.053826004
238	0x3c4c792d	0.012480062
239	0xbc869a21	-0.016430916
240	0xbbd271ee	-0.006422273
241	0x3b12bd63	0.0022390715
242	0x3ae82f5d	0.0017714311
243	0x3bfd4a53	0.0077298074
244	0xbd66ec5f	-0.056377765
245	0xbd1488f4	-0.03626342
246	0x3b39d5a6	0.0028356104
247	0xbd419bba	-0.047267653
248	0xbb949de5	-0.004535424
249	0xbd7ef12c	-0.06224172
250	0xbd4aa756	-0.04947599
251	0x3cbb0411	0.022829087
252	0xbd5a504c	-0.053299233
253	0xbcd8b298	-0.026452348
254	0x3ccd535a	0.02506416
255	0xbd14a7bd	-0.03629278
